HW-03/model/lstm.pth (torch, 427370 bytes, 6 tensors)

lstm.weight_ih_l0 f4 [512, 62]
0	0xbf3d7a91	-0.74015146
1	0xbc61ff0a	-0.013793716
2	0xbf3e8d02	-0.7443391
3	0xbe198675	-0.14992698
4	0xbe9b3d71	-0.30320314
5	0xbefad681	-0.48991778
6	0x3f030f45	0.51195174
7	0xbf0a45ce	-0.54012764
8	0xbe8dbe8d	-0.2768444
9	0xbf520b38	-0.8204837
10	0xbf201166	-0.6252655
11	0xbd33a57a	-0.043858983
12	0x3f262173	0.6489479
13	0x3f9160d6	1.1357677
14	0xbdccf063	-0.10006788
15	0xbf1ad73f	-0.6048469
16	0x3f54385f	0.82898515
17	0x3f80ba53	1.0056862
18	0x3f101df5	0.5629571
19	0x3f6c0289	0.9219137
20	0xbd6102fe	-0.054934494
21	0xbe8eca75	-0.27888837
22	0xbe9403f0	-0.28909254
23	0x3f37a7fb	0.7174069
24	0x3efd68fc	0.4949416
25	0x3eb81450	0.35952997
26	0x3e34f36a	0.1767098
27	0x3c5e815a	0.0135806445
28	0xbe6671cc	-0.22504348
29	0x3e8af7d2	0.27142197
30	0x3f668307	0.9004368
31	0x3f22a5a1	0.6353398
32	0x3e9212f0	0.28530073
33	0x3f1cc6c0	0.6124077
34	0x3f7fce58	0.9992423
35	0x3eb35070	0.35022306
36	0xbed7848d	-0.42093316
37	0x3fa3f91c	1.2810397
38	0x3f33199e	0.69960964
39	0x3f100e35	0.5627168
40	0x3cd91e74	0.026503779
41	0x3f3923d5	0.723203
42	0x3f77031c	0.9648912
43	0x3ee47e9c	0.44627845
44	0x3f4a4d20	0.79023933
45	0x3f8d9f7d	1.1064297
46	0x3f42620a	0.75930846
47	0x3f171c52	0.5902759
48	0x3f19b88f	0.6004724
49	0x3f05bb93	0.5223934
50	0xbedb3cb3	-0.42819747
51	0x3f993b4e	1.1971223
52	0x3f1b7785	0.6072925
53	0x3f3495f5	0.70541316
54	0xbd5b0509	-0.0534716
55	0x3eedc406	0.46438617
56	0xbeae515e	-0.34046453
57	0x3e4df062	0.2011123
58	0x3e8b290e	0.2717976
59	0x3f168a84	0.5880511
60	0x3f5e774e	0.86900795
61	0x3f10dccb	0.56586903
62	0x3fd58320	1.6680641
63	0x3ecad4f8	0.39615607
64	0x3f1666ab	0.5875041
65	0x3d3b21f9	0.045686696
66	0xbeaaf0f8	-0.3338697
67	0x3e006fbd	0.12542625
68	0x3f811fc6	1.0087821
69	0x3f001068	0.50025034
70	0x3d32ff60	0.043700576
71	0x3f0bab2d	0.5455807
72	0x3ee034b5	0.43790212
73	0x3e875a03	0.2643586
74	0xbe875be4	-0.26437294
75	0x3eb99d5a	0.36252862
76	0xbf1e32ee	-0.6179646
77	0xbead5900	-0.33856964
78	0x3ecd288f	0.40070006
79	0xbe62dba6	-0.22154102
80	0x3f27ad84	0.6549914
81	0xbeed0bef	-0.46298167
82	0xbe8cc394	-0.27492964
83	0x3f03f6df	0.5154857
84	0x3a34c80c	0.00068962644
85	0xbebd3112	-0.369515
86	0xbe8b080a	-0.2715457
87	0x3d4ad1b5	0.0495164
88	0xbed75e19	-0.42063978
89	0xbe0311c3	-0.12799744
90	0xbccfef55	-0.025382677
91	0x3e21d190	0.15802598
92	0x3dd55da0	0.10418248
93	0x3f193478	0.59845686
94	0x3e7adc44	0.24498087
95	0x3f721d9b	0.94576424
96	0x3e073128	0.13202345
97	0xbdc9b9dc	-0.09849903
98	0x3f46b998	0.77626944
99	0x3e8e2d37	0.2776887
100	0xbeb4b3b9	-0.35293368
101	0x3e9255aa	0.28580981
102	0x3f2944cd	0.66120607
103	0x3e9314af	0.28726718
104	0x3eafbd89	0.3432429
105	0x3f7d691a	0.989885
106	0x3edb3fb4	0.4282204
107	0xbd283026	-0.041061543
108	0x3f2bc003	0.6708986
109	0xbefcb9a6	-0.4936039
110	0x3f198dcc	0.5998199
111	0x3ddd9a62	0.10820462
112	0xbe10513d	-0.1409349
113	0xbd957120	-0.072969675
114	0x3e85fb4d	0.2616829
115	0x3e30549d	0.17219777
116	0x3eea50cf	0.45764777
117	0xbe09c1f0	-0.13452888
118	0x3ea8babd	0.3295497
119	0xbdd0dc3b	-0.10198256
120	0x3f805ece	1.0028932
121	0x3dc81654	0.09769884
122	0x3e26f282	0.16303447
123	0xbebb5a8f	-0.36592528
124	0xbc6549f3	-0.013994682
125	0xbd8e4066	-0.06945877
126	0x3eb6374c	0.35589063
127	0xbd0ea22c	-0.034822628
128	0x3eaf19f9	0.34199503
129	0xbd2429d6	-0.04007896
130	0x3f3e8ee1	0.74436766
131	0x3ece85f8	0.40336585
132	0x3e2e381e	0.17013595
133	0xbda87d1b	-0.08226987
134	0x3def1947	0.11674743
135	0xbe45dfc9	-0.19323649
136	0xb8b4f394	-8.628439e-05
137	0xbef2411e	-0.47315305
138	0xbef66cf7	-0.4813001
139	0xbf565f6a	-0.8373934
140	0xbcfc3ecd	-0.030791664
141	0xbdd33996	-0.10313718
142	0x3e067c87	0.13133441
143	0xbdce23d4	-0.100654274
144	0xbeccab7e	-0.39974588
145	0x3f14d02d	0.5813015
146	0xbf60066e	-0.8750981
147	0x3e861d88	0.26194406
148	0xbda4e218	-0.080509365
149	0x3f310104	0.69142175
150	0x3c3ff7a8	0.011716761
151	0x3f53d702	0.8274995
152	0x3f01d26f	0.5071172
153	0x3fa1dfd7	1.2646435
154	0xbde1cdf3	-0.1102561
155	0xbe6b2873	-0.22964649
156	0xbe0c6aec	-0.13712662
157	0x3e16d9d9	0.1473154
158	0xbec50c04	-0.3848573
159	0x3f26f6b5	0.65220195
160	0xbdd00d31	-0.10158766
161	0x3de08dd3	0.10964551
162	0x3f0b87a8	0.5450387
163	0x3e9db9f1	0.30805925
164	0x3e476a01	0.19474031
165	0x3cb680fc	0.022278301
166	0xbf50c502	-0.8155061
167	0xbd106346	-0.035250925
168	0x3f9ca1c9	1.2236873
169	0x3e606a27	0.21915494
170	0xbebcf43b	-0.36905083
171	0xbc1535d2	-0.00910707
172	0x3f0c0157	0.54689544
173	0x3efb23f5	0.4905087
174	0xbda481e8	-0.0803259
175	0x3ef8becd	0.4858307
176	0x3ecc65cd	0.39921418
177	0x3e8d608b	0.2761272
178	0x3f70ac2f	0.9401273
179	0x3f4e2e46	0.8053936
180	0x3e40830a	0.18799987
181	0x3e4aafe1	0.19793655
182	0xbecb002c	-0.3964857
183	0x3e9574c9	0.29190663
184	0x3e1e69e0	0.15470076
185	0x3f23b765	0.6395171
186	0xbe20b404	-0.1569367
187	0xbf33b168	-0.70192575
188	0x3f3682ce	0.7129334
189	0x3e3342db	0.17505972
190	0x3e098c77	0.1343249
191	0x3ca82cec	0.020529233
192	0xbe427b59	-0.18992366
193	0x3f0ae50e	0.5425576
194	0x3d9d3ea7	0.076779656
195	0xbf2ca3eb	-0.6743762
196	0x3e1d920d	0.15387745
197	0x3f54f0b9	0.83179814
198	0x3ee2628a	0.44215804
199	0x3e9cf3a4	0.30654633
200	0xbd75468e	-0.05988174
201	0x3f832747	1.0246361
202	0x3eb73e5c	0.35789764
203	0x3c756168	0.014976837
204	0x3ef66e07	0.4813082
205	0xbc905823	-0.017620152
206	0x3e964315	0.29348055
207	0x3f3d18a3	0.7386572
208	0xbf6b6d2d	-0.91963464
209	0x3f27d4b3	0.6555893
210	0xbe905254	-0.2818781
211	0x3eb66f66	0.35631865
212	0x3e929ace	0.28633732
213	0x3f6a6fb2	0.91576684
214	0x3edc0ee5	0.42980114
215	0x3f557ee9	0.83396775
216	0xbeeff9f0	-0.46870375
217	0x3f70e635	0.9410127
218	0x3e549907	0.207615
219	0x3e1d953a	0.15388957
220	0xbf9f131a	-1.2427704
221	0x3ddac4e4	0.10682085
222	0x3f8df140	1.1089249
223	0x3e9a7785	0.3016931
224	0x3e98f923	0.29877576
225	0xbea0dea7	-0.3141987
226	0x3e7df907	0.24802028
227	0x3f789922	0.9710866
228	0x3e876d47	0.2645056
229	0x3f6f2280	0.9341202
230	0xbea7bec7	-0.3276274
231	0x3eb553ad	0.35415402
232	0x3f846389	1.0342876
233	0xbf3536e9	-0.7078691
234	0x3ea1e97f	0.31623456
235	0x3f064a83	0.52457446
236	0x3f561471	0.8362494
237	0x3d765812	0.060142584
238	0xbcc76682	-0.024340872
239	0x3eaf78fa	0.34271985
240	0x3e367c60	0.17820883
241	0xbb249bd7	-0.0025117302
242	0x3f2eacd5	0.6823247
243	0x3f27bf68	0.6552644
244	0x3ef183c5	0.47170845
245	0x3f037e3e	0.51364505
246	0xbf09c756	-0.5381979
247	0xbd7cca98	-0.061716646
248	0xbe6f4047	-0.23364364
249	0x3f26bbb0	0.6513014
250	0xbf278c63	-0.6544859
251	0x3f01c2de	0.5068797
252	0x3edb0531	0.42777398
253	0x3d38123a	0.044939257
254	0x3e1959ab	0.14975612
255	0xbe21ef93	-0.15814047

lstm.weight_hh_l0 f4 [512, 128]
0	0x3e241c64	0.16026455
1	0xbeb02600	-0.34403992
2	0xbe896a22	-0.26838785
3	0xbe369388	-0.17829716
4	0xbe24dcef	-0.16099904
5	0x3e54a69d	0.20766683
6	0x3e4bdacc	0.19907683
7	0xbd318bf8	-0.043346375
8	0xbc18e734	-0.009332467
9	0xbe28355b	-0.16426603
10	0x3e21ac33	0.15788345
11	0xbe3b6b87	-0.18302737
12	0xbe2f3d6f	-0.17113279
13	0xbcfc9e10	-0.030837089
14	0x3e848fe8	0.25891042
15	0x3dc51a85	0.09624199
16	0x3e8d67bd	0.2761821
17	0xbe9af8af	-0.30267856
18	0x3cb97692	0.022639547
19	0x3de17e46	0.11010413
20	0x3d0e35b3	0.03471918
21	0x3da1a232	0.078922644
22	0x3efd23ed	0.49441472
23	0xbeaa8cd9	-0.33310583
24	0x3e704d8c	0.23467082
25	0xbe622733	-0.22085266
26	0x3e6fe740	0.23428059
27	0x3dcd6935	0.10029832
28	0xbddcc2ae	-0.1077932
29	0x3c165d59	0.009177529
30	0x3e07254c	0.13197821
31	0x3e1a6275	0.15076621
32	0x3ec6184c	0.38690412
33	0x3e0501a5	0.12988909
34	0xbd73f547	-0.059560087
35	0xbec57561	-0.38566115
36	0x3e25cb4f	0.16190837
37	0xbd09fbba	-0.03368733
38	0xbd59bc87	-0.05315831
39	0xbd98d640	-0.0746274
40	0x3d98c9d7	0.07460373
41	0xbe37b591	-0.17940356
42	0x3e1bef11	0.15227915
43	0xbdafcc2d	-0.08583865
44	0x3e7d5eaf	0.2474315
45	0xbe1c60f8	-0.15271366
46	0xbe027e5d	-0.12743516
47	0x3e2f968d	0.17147274
48	0xbeabc012	-0.33544976
49	0xbe94d625	-0.2906963
50	0x3ed6931b	0.41909108
51	0x3d40bba7	0.04705396
52	0x3ec083c0	0.37600517
53	0x3be32b49	0.00693265
54	0x3def55ae	0.11686264
55	0xbcb481a4	-0.022034474
56	0xbf05f57e	-0.52327716
57	0xbd380e56	-0.044935547
58	0x3d94cac5	0.07265238
59	0xbe6c6cff	-0.23088454
60	0x3d864455	0.06556002
61	0xbdc05bb4	-0.09392491
62	0xbd31899b	-0.04334412
63	0xbe0ba946	-0.13638791
64	0xbed18eea	-0.40929347
65	0x3df8a9c8	0.12141758
66	0xbe95ed16	-0.29282445
67	0xbe3c755e	-0.18404147
68	0x3ef50fe4	0.47863686
69	0xbdea3d4b	-0.11437472
70	0x3dd03109	0.10165603
71	0x3e1faf15	0.15594132
72	0x3e09d1e7	0.13458978
73	0xbdf7e0f9	-0.12103457
74	0xbbc39bcf	-0.0059695016
75	0xbf5e2a55	-0.86783344
76	0xbade05eb	-0.001693902
77	0x3bebacca	0.007192229
78	0xbca55267	-0.020180894
79	0xbe88ddd1	-0.26731732
80	0x3da9f97a	0.08299537
81	0xbf01c064	-0.5068419
82	0xbcd6f2ad	-0.026238764
83	0xbd5b7467	-0.053577807
84	0xbd136b21	-0.035990838
85	0x3d4e82e4	0.050417796
86	0xbd5c5ddb	-0.053800445
87	0xbde1cc86	-0.11025338
88	0xbeefab4e	-0.46810383
89	0x3d4edf1b	0.05050574
90	0xbe1c6de1	-0.1527629
91	0x3ddf1b65	0.10893897
92	0x3d685a3b	0.056726675
93	0xbd880234	-0.06641045
94	0xbc01b81a	-0.007917428
95	0xbd4fdc87	-0.05074742
96	0x3cb3ebb6	0.021962982
97	0xbd360deb	-0.044446867
98	0xbd959e0a	-0.07305534
99	0xbe227ee5	-0.15868719
100	0xbb9aa0c2	-0.004718871
101	0xbea61207	-0.3243563
102	0xbc18ca30	-0.009325549
103	0xbd1f202f	-0.038849052
104	0xbe0eb191	-0.13934924
105	0xbdfe03e8	-0.12403089
106	0x3ebf7298	0.37392116
107	0x3e18dd33	0.14928131
108	0xbe445a63	-0.19175105
109	0x3c15e58c	0.0091489665
110	0xbc8fd306	-0.017556679
111	0x3efc00c5	0.49219337
112	0xbe9e2ee4	-0.3089515
113	0xbd97a8f7	-0.07405274
114	0xbbd7237b	-0.006565509
115	0x3dd98fa0	0.106230974
116	0xbd71634f	-0.0589326
117	0xbdb78934	-0.08961716
118	0xbdee050c	-0.11622056
119	0x3da4b0d0	0.08041537
120	0x3e9bb7fb	0.30413803
121	0x3e31fed6	0.17382368
122	0x3e6e85d1	0.23293234
123	0xbcae0489	-0.021242397
124	0x3c81cf20	0.015845835
125	0x3e8850c9	0.26624134
126	0xbc00c40a	-0.007859239
127	0xbe80cfbe	-0.25158495
128	0xbdd8cbec	-0.1058577
129	0x3ca6b4dc	0.020349912
130	0xbe176c75	-0.14787467
131	0xbe101848	-0.14071763
132	0x3d5ac0eb	0.053406637
133	0xbc05999d	-0.0081543
134	0x3bda5f91	0.0066642244
135	0xbd0ba003	-0.034088146
136	0xbde7e120	-0.11322236
137	0xbdbd733f	-0.09250497
138	0xbc7e8c01	-0.015536309
139	0xbc97b5b8	-0.018519267
140	0xbe4598f3	-0.19296627
141	0x3e73985d	0.2378859
142	0xbb3d7417	-0.0028908306
143	0xbd3551d1	-0.04426748
144	0x3d62ce90	0.055372775
145	0xbdf8db5d	-0.12151215
146	0xbd1f3132	-0.038865276
147	0xbdfd0d2f	-0.1235603
148	0xbd3b9aba	-0.045801856
149	0x3e1a9370	0.15095305
150	0xbf09957c	-0.5374372
151	0x3eeab6b9	0.4584253
152	0xbef23c14	-0.4731146
153	0x3b0ceb10	0.0021502413
154	0x3d1f4e3f	0.03889298
155	0xbe97443b	-0.29544243
156	0xbdff96ee	-0.124799594
157	0x3c0ee93f	0.008722602
158	0xbb549063	-0.0032434694
159	0xbd985fb6	-0.074401304
160	0x3dd0d374	0.101965815
161	0x3d6842a2	0.05670417
162	0xbe1c67ea	-0.15274015
163	0xbda0158f	-0.07816612
164	0xbea89af7	-0.3293073
165	0x3e43b833	0.19113235
166	0xbe0dfc03	-0.13865666
167	0x3e023a85	0.12717636
168	0x3db1e8bd	0.086869694
169	0xbe15788c	-0.14596766
170	0xba73dfba	-0.0009303052
171	0x3d81aee6	0.06332187
172	0x3dda7b61	0.10668064
173	0xbdc7868f	-0.09742462
174	0xbc382706	-0.011239773
175	0x3dbeb36e	0.09311567
176	0x3c064138	0.00819426
177	0xbde6c259	-0.112675376
178	0x3e0d592b	0.13803546
179	0xbd547479	-0.05186889
180	0x3db985f3	0.09058752
181	0xbde8f204	-0.11374286
182	0x3d37271d	0.044715036
183	0xbe4c31f3	-0.19940929
184	0xbebbc6d5	-0.36675134
185	0x3d112dfc	0.035444245
186	0x3f0ddc38	0.5541415
187	0xbd2ebef1	-0.042662565
188	0xbe17d02c	-0.14825505
189	0xbe1c7570	-0.15279174
190	0xbebbd71b	-0.3668755
191	0x3c8c00e8	0.017090276
192	0xbe664cd2	-0.22490242
193	0x3ddff0aa	0.10934575
194	0xbd21339c	-0.03935586
195	0x3cba5171	0.022743912
196	0x3e039458	0.12849557
197	0x3d01fdae	0.03173607
198	0x3e1f90cf	0.15582584
199	0x3cf97c59	0.030454801
200	0xbd46fe88	-0.048582584
201	0xbe84aa96	-0.25911397
202	0xbcff80d7	-0.031189365
203	0xbec0c838	-0.37652755
204	0xbef55986	-0.47919863
205	0xbd17d792	-0.03707082
206	0x3e0fabae	0.14030334
207	0x3bbf895f	0.0058452333
208	0x3d84f0a9	0.06491215
209	0xbebfb981	-0.37446216
210	0x3e154973	0.145788
211	0x3d14c7c3	0.03632332
212	0x3c972814	0.018451728
213	0xbce24153	-0.02761904
214	0x3e105d46	0.14098081
215	0x3de3cfe7	0.111236386
216	0x3e8ed6e8	0.27898335
217	0x3ca10e0d	0.01966002
218	0xbd9a0687	-0.07520776
219	0x3d7686d4	0.060187176
220	0xbdb1a0a1	-0.08673216
221	0x3d5d99e1	0.05410183
222	0xbdc3cbaf	-0.09560334
223	0x3e4da625	0.2008291
224	0x3da9c2e3	0.08289125
225	0xbd1398a5	-0.036034245
226	0xbdd40c88	-0.10353953
227	0xbe95daa7	-0.2926838
228	0x3ce6ab6b	0.02815791
229	0xbec026d7	-0.37529632
230	0x3d5e190f	0.054223116
231	0x3d9cb40b	0.07651528
232	0xbd8fcbcb	-0.07021292
233	0x3df70d1c	0.12063047
234	0x3edc463c	0.43022335
235	0x3db72f3b	0.08944555
236	0xbc4e784a	-0.012601921
237	0x3e49a0fb	0.19690315
238	0xbd02a182	-0.031892307
239	0x3e2dd5b3	0.16976051
240	0xbcbb9067	-0.022896005
241	0x3f0de8fd	0.55433637
242	0xbe338ed1	-0.17534949
243	0xbe1d0495	-0.15333779
244	0xbe0a9651	-0.13533904
245	0xbd2ab62f	-0.04167765
246	0x3d602322	0.054721005
247	0x3dd0110f	0.10159504
248	0xbe6dbaaf	-0.23215745
249	0x3cf21d6a	0.029555041
250	0x3c376ed7	0.01119586
251	0xbdeb619f	-0.11493229
252	0x3d9d4a3d	0.076801755
253	0x3e87a0ef	0.2648997
254	0xbe8bbb26	-0.2729122
255	0xbe17cc68	-0.14824069

lstm.bias_ih_l0 f4 [512]
0	0x3f089641	0.5335427
1	0x3f2efae2	0.68351567
2	0x3ebc2e9f	0.3675432
3	0x3ef3638d	0.4753689
4	0x3ef5606d	0.4792513
5	0x3f349bdd	0.7055033
6	0x3e0c5335	0.13703616
7	0x3f2c6e88	0.6735616
8	0x3eafdd0f	0.34348342
9	0x3f1e4e3f	0.61838144
10	0x3f2a5e96	0.66550577
11	0x3f14e241	0.58157736
12	0x3f16dcdb	0.5893075
13	0x3f3b464b	0.73154134
14	0x3ec3a59b	0.38212284
15	0x3ef7d68a	0.48405868
16	0x3f21f124	0.63258576
17	0x3f0504f5	0.5196069
18	0x3eadd3e7	0.3395073
19	0x3e533cf8	0.20628726
20	0x3ef9bc60	0.4877653
21	0x3f025f0d	0.50926286
22	0x3ed1ce3c	0.40977657
23	0x3f0902e9	0.53520066
24	0x3ee70d63	0.451274
25	0x3ed8bc69	0.42331246
26	0x3f121ceb	0.57075375
27	0x3ed8e0de	0.4235906
28	0x3e80027b	0.25001892
29	0x3ed07390	0.40713167
30	0x3f54673d	0.8297003
31	0x3ee9d350	0.4566903
32	0x3eaec448	0.34134126
33	0x3ebf6a22	0.3738566
34	0x3ef840d0	0.48486948
35	0x3d766e92	0.06016404
36	0x3ead761d	0.33879176
37	0x3e818b69	0.25301674
38	0x3f303095	0.6882413
39	0x3ed14c16	0.4087836
40	0x3f10d595	0.565759
41	0x3ee68306	0.45021838
42	0x3f0d4586	0.5518421
43	0x3f49e640	0.7886696
44	0x3f0290c9	0.51002175
45	0x3f624d65	0.88399345
46	0x3ebff53c	0.37491786
47	0x3e27552c	0.16341084
48	0x3e4dba08	0.20090497
49	0x3ee0c388	0.43899179
50	0x3eea8506	0.45804614
51	0x3ea267fb	0.31719956
52	0x3eed7be3	0.4638358
53	0x3f4ef69d	0.8084505
54	0x3eabfecf	0.3359284
55	0x3e9f8171	0.31153443
56	0x3f263134	0.6491883
57	0x3e258248	0.1616298
58	0x3f6f24c2	0.9341546
59	0x3ea91f79	0.33031824
60	0x3f811d84	1.0087132
61	0x3ecbc9e2	0.39802462
62	0x3f3df357	0.7419943
63	0x3e7de6bf	0.24795054
64	0x3f24c5cc	0.64364314
65	0x3ee93e14	0.45555174
66	0x3f1411ed	0.5783985
67	0x3eec246d	0.4612154
68	0x3e55a106	0.20862207
69	0x3e89d3aa	0.269193
70	0x3e940150	0.2890725
71	0x3eb2457f	0.34818646
72	0x3ec6608a	0.38745528
73	0x3ea9676b	0.33086714
74	0x3ef849f2	0.48493916
75	0x3ef8076a	0.48443156
76	0x3ef7bc5c	0.48385894
77	0x3e920535	0.28519598
78	0x3f36c115	0.7138837
79	0x3f59e1a5	0.8510993
80	0x3e8bf442	0.2733479
81	0x3f165828	0.58728266
82	0x3ed7ba51	0.42134336
83	0x3dd9e3bd	0.10639141
84	0x3e5438bf	0.20724772
85	0x3ed939f6	0.42427033
86	0x3f19b9f3	0.6004936
87	0x3f16ee05	0.5895694
88	0x3f1f8a03	0.62319964
89	0x3f0ddeec	0.55418277
90	0x3ee67adc	0.4501561
91	0x3ef446fc	0.47710407
92	0x3e9adbbd	0.30245772
93	0x3f261c58	0.64887
94	0x3ec699b7	0.3878915
95	0x3ef7daac	0.4840902
96	0x3ede1327	0.43373987
97	0x3e8ea2ee	0.2785868
98	0x3f3cca40	0.7374611
99	0x3f14781d	0.5799578
100	0x3ea53bba	0.3227213
101	0x3f6b9494	0.9202359
102	0x3e75aba8	0.23991263
103	0x3eb3efe1	0.3514395
104	0x3e8cd38c	0.27505147
105	0x3f07b525	0.5301078
106	0x3f7047ba	0.93859446
107	0x3ea1c384	0.3159448
108	0x3e6cda4c	0.23130149
109	0x3ed1bb92	0.40963417
110	0x3ef8a341	0.48562053
111	0x3ef931ee	0.48670906
112	0x3f108973	0.5645973
113	0x3f3e698e	0.74379814
114	0x3edd890f	0.4326863
115	0x3f529cdb	0.8227059
116	0x3edb289f	0.4280443
117	0x3e425547	0.18977843
118	0x3e78a68b	0.24282281
119	0x3ed70f05	0.42003646
120	0x3f86e109	1.0537425
121	0x3eee0d17	0.46494362
122	0x3ece5896	0.4030196
123	0x3f58e667	0.84726566
124	0x3f2072dc	0.6267526
125	0x3eea6e97	0.45787498
126	0x3f302952	0.6881305
127	0x3f18f872	0.597541
128	0xbd32afeb	-0.0436248
129	0x3c942aad	0.018086756
130	0x3e3a6a90	0.18204713
131	0x3c0edb39	0.008719259
132	0x3cab323f	0.020897983
133	0x3e119ea6	0.14220676
134	0xbc236e41	-0.009975017
135	0x3cfa1ede	0.030532297
136	0xbc9b1632	-0.018931482
137	0xbd19eb78	-0.037578076
138	0xbdb5102a	-0.08840974
139	0x3e071871	0.13192917
140	0xbd2ba85c	-0.041908607
141	0x3bd9d14a	0.0066472637
142	0x3e193d9f	0.14964913
143	0x3c653c66	0.013991451
144	0x3d986482	0.07441045
145	0x3ddf3e49	0.10900552
146	0xbcb0c1f5	-0.02157686
147	0x3d912eef	0.0708903
148	0x3e2b3a21	0.16721393
149	0x3dad5f7d	0.084654786
150	0xbe21f4d3	-0.1581605
151	0xbe2514bd	-0.16121192
152	0xbc538f88	-0.0129126385
153	0xbc99c501	-0.018770697
154	0x3db3d170	0.087801814
155	0x3dbba870	0.09162986
156	0x3c9e43f1	0.019319506
157	0x3e00ae4f	0.12566493
158	0xbd810b67	-0.06301003
159	0xbd460fed	-0.04835503
160	0xbcbd6168	-0.023117736
161	0xbd87a055	-0.06622378
162	0x3952dbf2	0.00020109097
163	0xbc28953f	-0.010289489
164	0x3d640914	0.05567272
165	0x3e00370c	0.12520999
166	0x3e12a9a9	0.14322533
167	0x3dac44af	0.08411538
168	0xbb1fe16a	-0.0024395832
169	0x3dbef01e	0.093231425
170	0xbc7b54c7	-0.015340037
171	0x3c557eab	0.013030688
172	0xbce6b8cf	-0.028164295
173	0x3ddaf9e9	0.10692198
174	0x3d9e332e	0.077246055
175	0x3cb45b79	0.022016274
176	0x3e092d71	0.13396241
177	0x3dc855d5	0.09781996
178	0x3d8bf807	0.06834417
179	0xbcf4c492	-0.029878888
180	0x3b7116a2	0.0036787172
181	0x3de7cae4	0.11317995
182	0xbdaa8a86	-0.083272025
183	0x3cd18ace	0.025578883
184	0x3dca619b	0.09881898
185	0xbd7fa744	-0.062415376
186	0xbd40b5cd	-0.04704838
187	0xbc9be496	-0.019029897
188	0xbd528367	-0.051394846
189	0xbbe2870d	-0.006913072
190	0x3dbbdc80	0.091729164
191	0xbd3466fd	-0.04404353
192	0x3d311acd	0.04323845
193	0x3dd219fb	0.10258862
194	0x3cf20b2e	0.029546347
195	0xbd089698	-0.033346742
196	0x3e00dfec	0.1258542
197	0xbc3f5d6d	-0.011679989
198	0x3d18d4a9	0.037312184
199	0x3dcf2656	0.10114734
200	0x3d37e341	0.04489446
201	0x3d59314b	0.053025525
202	0x3c996626	0.018725466
203	0x3cf30f6e	0.029670443
204	0xbce95cac	-0.028486572
205	0x3ceff170	0.029289931
206	0x3d958287	0.07300287
207	0xbc7d77e9	-0.015470483
208	0xbd7fc182	-0.062440403
209	0xbdb5b3fc	-0.0887222
210	0x3c3b768d	0.011441839
211	0xbd0de339	-0.034640525
212	0xbc8de746	-0.017322194
213	0x3ce39a44	0.02778352
214	0x3ce4a784	0.027911909
215	0x3da22a1d	0.07918189
216	0x3d97d066	0.07412796
217	0x3dd366e6	0.10322361
218	0x3c8714c8	0.016489401
219	0x3c2d39d9	0.010572874
220	0xbd7ed4a8	-0.062214524
221	0x3c5c5c86	0.013449794
222	0x3d13c324	0.036074772
223	0x3d1d14be	0.03834986
224	0x3c8183a8	0.015809849
225	0x3d877acf	0.06615221
226	0x3cca4c73	0.024694657
227	0xbd91193b	-0.070848905
228	0x3dae7406	0.085182235
229	0xbd8fd134	-0.07022324
230	0x3c5b0996	0.013368985
231	0xbc734319	-0.01484754
232	0xbbf050ba	-0.007333842
233	0x3dc44eba	0.095853284
234	0xbdab205e	-0.08355783
235	0xbd0cb3b5	-0.03435107
236	0x3cd2f3e6	0.025751065
237	0x3ca56803	0.020191198
238	0xbc4d2b94	-0.012522597
239	0xbc3276ea	-0.010892609
240	0x3ca75a1c	0.02042871
241	0xbcb535cb	-0.022120377
242	0xbcc8bf46	-0.024505269
243	0xbd5385be	-0.05164122
244	0xbdb174cf	-0.086648576
245	0x3e3205cd	0.17385025
246	0x3c883fea	0.01663204
247	0x3e318e17	0.17339359
248	0x3d57a471	0.052647058
249	0x3c102567	0.00879798
250	0xbd2a72cd	-0.04161339
251	0x3e1eed38	0.1552018
252	0x3e3823a8	0.17982352
253	0x3e12f72b	0.143521
254	0x3d243807	0.040092494
255	0x3d022128	0.0317699

lstm.bias_hh_l0 f4 [512]
0	0x3eedc36c	0.46438158
1	0x3f22936b	0.6350619
2	0x3ef4c263	0.47804555
3	0x3ef9d41b	0.48794636
4	0x3eb391d5	0.350722
5	0x3f4af237	0.7927584
6	0x3e432e77	0.19060694
7	0x3f28334b	0.65703267
8	0x3e8d32a5	0.275777
9	0x3f1878dd	0.5955942
10	0x3f2b5070	0.6691961
11	0x3f1d22c6	0.61381185
12	0x3f12cd5d	0.5734461
13	0x3f27ba59	0.6551872
14	0x3e7b00d6	0.24512038
15	0x3ebec1f4	0.3725735
16	0x3f178296	0.59183633
17	0x3f0adf91	0.54247385
18	0x3eacd9cf	0.33759925
19	0x3e42642b	0.18983524
20	0x3f035609	0.51303154
21	0x3f0aedf3	0.5426933
22	0x3f008de7	0.50216526
23	0x3f19fb05	0.6014865
24	0x3efabd63	0.48972616
25	0x3e8a24cc	0.269812
26	0x3f0a2ad7	0.5397162
27	0x3ed10e90	0.40831423
28	0x3e97407c	0.29541385
29	0x3ea8fabc	0.33003795
30	0x3f598627	0.84970325
31	0x3ec69122	0.38782603
32	0x3ea8982c	0.32928598
33	0x3eeb4adc	0.4595555
34	0x3ee73b6c	0.45162523
35	0x3e36c7d5	0.17849667
36	0x3ed93ed3	0.42430744
37	0x3e939297	0.28822777
38	0x3f22721b	0.6345536
39	0x3f07a8cf	0.52991956
40	0x3eec524b	0.46156535
41	0x3ec44836	0.38336343
42	0x3f01a5f6	0.5064386
43	0x3f464396	0.7744688
44	0x3ec7aae0	0.38997555
45	0x3f5b2127	0.8559746
46	0x3ecffd88	0.40623116
47	0x3da30b30	0.07961118
48	0x3eaf1d6a	0.3420213
49	0x3eaf43cc	0.34231412
50	0x3ec0c608	0.37651086
51	0x3ea3ae47	0.319689
52	0x3ef7dfc7	0.48412916
53	0x3f4d7508	0.802567
54	0x3ed0dc51	0.40793088
55	0x3ec32e93	0.3812147
56	0x3f3b58d6	0.7318243
57	0x3e5bad7c	0.21452898
58	0x3f5ba846	0.8580364
59	0x3ed5b6c3	0.41741
60	0x3f803c1b	1.0018343
61	0x3e9f721c	0.31141746
62	0x3f1f91eb	0.6233203
63	0x3ea4198d	0.32050744
64	0x3f002a8f	0.5006494
65	0x3eca9d60	0.39573193
66	0x3f044028	0.51660395
67	0x3ec081a1	0.375989
68	0x3d4a6eda	0.049422123
69	0x3e649156	0.22321066
70	0x3e985f0a	0.2976001
71	0x3eaea057	0.34106705
72	0x3f000801	0.50012213
73	0x3efb5956	0.49091595
74	0x3f02bfef	0.5107412
75	0x3f056220	0.5210285
76	0x3f0745cd	0.5284088
77	0x3e8b2fb7	0.2718484
78	0x3f239b5b	0.6390893
79	0x3f61cf39	0.8820682
80	0x3e687c64	0.22703701
81	0x3f179c4c	0.59222865
82	0x3f04985e	0.51794994
83	0x3e745771	0.23861481
84	0x3e9c5895	0.30536333
85	0x3ef237c8	0.47308183
86	0x3f04a952	0.5182086
87	0x3f19ae12	0.60031235
88	0x3ef55661	0.47917464
89	0x3f1659ad	0.58730584
90	0x3ea592ae	0.3233847
91	0x3edb11b8	0.42786956
92	0x3ecf5b21	0.40499213
93	0x3f107990	0.5643549
94	0x3ef513e5	0.4786674
95	0x3ec16a44	0.37776387
96	0x3ef31cf1	0.47483018
97	0x3e99c1c8	0.30030656
98	0x3f3dd976	0.74159944
99	0x3f08a8c2	0.53382504
100	0x3e998ccd	0.29990235
101	0x3f6bc836	0.9210237
102	0x3ea203a6	0.3164341
103	0x3eacfbb9	0.337858
104	0x3e975084	0.29553616
105	0x3f00744a	0.50177443
106	0x3f6c9e7a	0.92429316
107	0x3e7fad0f	0.2496836
108	0x3ec3dc7c	0.38254154
109	0x3ee5dab0	0.44893408
110	0x3ecd5fcb	0.40112147
111	0x3eb783bf	0.35842702
112	0x3f03a7fe	0.5142821
113	0x3f252014	0.6450207
114	0x3ede4ed7	0.43419525
115	0x3f45ab03	0.7721407
116	0x3eb90563	0.36136922
117	0x3e7979ef	0.2436292
118	0x3e93ea88	0.2888987
119	0x3f0b22ab	0.54349774
120	0x3f982d4c	1.1888824
121	0x3ed119f3	0.4084011
122	0x3eed3968	0.4633286
123	0x3f69996f	0.91249746
124	0x3f42f4cd	0.76154786
125	0x3f15024d	0.58206636
126	0x3f29a4de	0.6626719
127	0x3f0b4adc	0.544111
128	0xbbefa66f	-0.0073135416
129	0x3ca3da75	0.02000163
130	0x3e28cf54	0.1648534
131	0x3dfed273	0.12442484
132	0x3bd8705d	0.0066051916
133	0x3dee0dce	0.11623727
134	0x3db7b5fe	0.08970259
135	0xbd786ee1	-0.060652617
136	0xbd1eb051	-0.038742367
137	0x3c727199	0.014797592
138	0xbd6d1ff3	-0.057891797
139	0x3d16dc98	0.03683147
140	0xbddabd03	-0.106805824
141	0xbd8fdd57	-0.07024639
142	0x3df6bf34	0.12048188
143	0x3d29862f	0.041387733
144	0x3d244d44	0.04011275
145	0x3d1cc13f	0.03827023
146	0x3b731e53	0.0037096932
147	0x3ce71c49	0.02821173
148	0x3e4e6e27	0.20159207
149	0x3de46efb	0.1115398
150	0xbd5e8d7d	-0.054334152
151	0xbe2c4769	-0.16824116
152	0xbdf36f25	-0.118864335
153	0xbcbe37fd	-0.023220057
154	0x3c9f083a	0.019413102
155	0x3da923be	0.082587704
156	0x3d401f2b	0.046904724
157	0x3df3e54d	0.1190897
158	0xbde36b3d	-0.111044385
159	0xbd7548d3	-0.059883904
160	0xbdca3931	-0.0987419
161	0x3d5bc5a8	0.053655297
162	0x3ce9b067	0.028526498
163	0xbcc0e33b	-0.023545852
164	0xbd4c6f7e	-0.049911015
165	0x3de69048	0.11257988
166	0x3e3586eb	0.17727248
167	0x3d8254dd	0.06363843
168	0x3b03fcfe	0.0020139809
169	0x3de82242	0.11334659
170	0x3db89d71	0.090144046
171	0x3cbeac75	0.023275593
172	0xbc1448b0	-0.009050533
173	0x3e2b3d10	0.16722512
174	0x3d9f240a	0.07770546
175	0x3d45fdc6	0.04833772
176	0x3d80f0ad	0.06295905
177	0x3ca742e2	0.020417634
178	0x3dd80505	0.105478324
179	0x3da9c744	0.0828996
180	0x3e0ba52a	0.13637224
181	0x3db42818	0.0879671
182	0xbd9e3b82	-0.07726194
183	0xbd7cd1c1	-0.061723474
184	0xbd0a1de4	-0.033719912
185	0x3d7b87c9	0.06140879
186	0x3d20db07	0.03927138
187	0x3d21eebb	0.03953431
188	0x3d8572a9	0.0651601
189	0x3ccfdafc	0.025372975
190	0x3cb64a1e	0.022252139
191	0x3d7419ff	0.059595104
192	0x3d19dd4d	0.037564564
193	0xbba3683a	-0.00498679
194	0x3e21df51	0.15807845
195	0x3c86493f	0.016392348
196	0x3dcc845a	0.099861816
197	0xbc203ae1	-0.009779663
198	0xbd802529	-0.06257088
199	0x3d4d82d3	0.05017359
200	0x3d95b26a	0.073094204
201	0xbd82de27	-0.063900284
202	0x3d35720a	0.04429821
203	0x3aa9432b	0.0012913694
204	0xbd08544e	-0.033283524
205	0x3d6dc225	0.05804648
206	0xbc9ca473	-0.019121384
207	0x3b9110d7	0.0044270563
208	0x3dcc37aa	0.099715546
209	0x3a8e6fbc	0.001086704
210	0x3d126afe	0.035746567
211	0x3d7db506	0.061940216
212	0xbcd4705e	-0.025932487
213	0xbd091466	-0.03346672
214	0x3dcd0565	0.100107946
215	0xbd7c567d	-0.06160592
216	0xbc8cd1eb	-0.01718994
217	0x3de17b5a	0.110098556
218	0x3c67048c	0.014100205
219	0x3de5c4c2	0.11219169
220	0xbd346b85	-0.04404785
221	0xbd533974	-0.051568463
222	0x3d88b913	0.06675925
223	0x3d736785	0.059424896
224	0x3d803fa4	0.062621385
225	0xbcc67d67	-0.024229718
226	0x3d857a90	0.065175176
227	0x3af2cabf	0.0018523558
228	0x3c9f4e1f	0.01944643
229	0x3d70096d	0.05860274
230	0x3d9f1577	0.07767766
231	0x3c6b4eec	0.014362078
232	0x3d8f379a	0.06993027
233	0x3dedef02	0.11617853
234	0xbcb98fc6	-0.022651564
235	0xbcb0f7e5	-0.02160258
236	0x3d427325	0.04747309
237	0x3d871afc	0.06596944
238	0x3e0962be	0.13416573
239	0x3d1d40f1	0.03839201
240	0x3d4af228	0.049547344
241	0x3d960b23	0.07326343
242	0xba265338	-0.0006344798
243	0x3d26f28a	0.040758647
244	0x3ccf96d9	0.025340484
245	0x3d8774a6	0.06614046
246	0xbd0b852e	-0.034062557
247	0x3dc30175	0.09521762
248	0xbd9b4788	-0.07582003
249	0x3c492ea2	0.012279185
250	0x3cd0f455	0.025507132
251	0x3e068f80	0.13140678
252	0x3dbaa241	0.09112979
253	0x3b587c9d	0.003303326
254	0xbc27c70f	-0.01024033
255	0x3d6a6213	0.057222437

fc.weight f4 [62, 128]
0	0x3f16a898	0.58851004
1	0xbf23936d	-0.6389683
2	0x3da29c49	0.07939965
3	0x3cbb2fb9	0.022849904
4	0xbe12768a	-0.14303032
5	0x3f6a91a8	0.91628504
6	0xbe92ee41	-0.28697398
7	0xbec4c22f	-0.384294
8	0xbe8f80f1	-0.28028062
9	0xbe38650a	-0.18007293
10	0xbf7970d6	-0.974378
11	0x3df8025a	0.121098235
12	0x3eeae3fd	0.45877066
13	0xbee6bc23	-0.45065412
14	0xbcc56dd7	-0.024100227
15	0xbe05c57a	-0.13063613
16	0x3e276894	0.16348487
17	0x3dc17f9f	0.0944817
18	0xbeb93e3c	-0.36180294
19	0xbd03a16f	-0.032136377
20	0xbe4894a0	-0.19587946
21	0xbdf09a88	-0.117482245
22	0xbf6bcde2	-0.9211103
23	0x3f839885	1.028092
24	0x3f8b3dd1	1.087824
25	0x3e11fbe0	0.14256239
26	0x3e3cc633	0.18434982
27	0xbe72338b	-0.23652475
28	0xbe9bf648	-0.30461335
29	0x3e7ea493	0.24867468
30	0x3f19aa3e	0.60025394
31	0xbf316fc0	-0.6931114
32	0xbf5e1f48	-0.8676648
33	0xbee3f65a	-0.4452389
34	0xbec77553	-0.389567
35	0xbea23f1e	-0.3168878
36	0xbd7d5dca	-0.061857022
37	0x3ee924fe	0.45536035
38	0xbec6e995	-0.38850084
39	0x3e9ceda1	0.30650046
40	0xbd9859b6	-0.07438986
41	0xbed5225b	-0.41627774
42	0x3ed8bc41	0.42331126
43	0xbe82353c	-0.2543124
44	0xbe7f6037	-0.24939047
45	0xbeaa225e	-0.33229345
46	0x3d419f13	0.047270846
47	0xbd1ee176	-0.038789235
48	0xbe91dba7	-0.28487894
49	0x3dd98b52	0.10622276
50	0x3d3da59c	0.046300516
51	0xbdd259e8	-0.102710545
52	0xbd6cf7a2	-0.05785335
53	0x3ed6b043	0.41931352
54	0x3e9905b4	0.29887164
55	0xbeefa1c7	-0.46803114
56	0x3f3a8302	0.7285615
57	0x3d8b49e0	0.068012
58	0x3dcbad27	0.099451356
59	0x3dfe393c	0.1241326
60	0xbe39807a	-0.18115416
61	0x3ce2dc50	0.027692944
62	0x3f2e2f6c	0.6804111
63	0xbd10aace	-0.035319142
64	0x3ec1d490	0.37857485
65	0x3f061543	0.5237619
66	0x3e8e12eb	0.27748808
67	0x3f1ca101	0.6118317
68	0xbf58381e	-0.8446063
69	0xbe26e0ea	-0.16296735
70	0x3e4502b7	0.19239317
71	0xbf040b68	-0.51579905
72	0xbe579d76	-0.2105616
73	0xbf07c7d1	-0.5303927
74	0x3cf167e1	0.029468479
75	0x3f33d83a	0.7025181
76	0xbea954bd	-0.33072463
77	0x3e1dfd6f	0.15428708
78	0xbf515f7d	-0.8178633
79	0x3f5fd287	0.87430614
80	0x3ecc0337	0.39846203
81	0x3f1d1e35	0.6137422
82	0xbeafb9a8	-0.34321332
83	0xbd32de5e	-0.043669097
84	0xbc59fcc2	-0.013304891
85	0xbeb64ae7	-0.3560402
86	0x3dc3489b	0.09535333
87	0x3cb4f57b	0.02208971
88	0x3f8c7fbd	1.0976483
89	0xbe5489b1	-0.2075565
90	0x3e33e403	0.17567448
91	0xbe82588b	-0.25458178
92	0xbe19e2d8	-0.1502794
93	0xbddecf99	-0.1087944
94	0xbec40302	-0.38283545
95	0xbeca41bc	-0.39503276
96	0xbf02e46d	-0.511298
97	0x3aae6d28	0.0013307678
98	0x3ee9a1d4	0.45631278
99	0xbe48269c	-0.19545978
100	0x3e9d0e4f	0.3067498
101	0xbed4e71d	-0.41582575
102	0xbe5f5a4a	-0.21811786
103	0x3dc7175d	0.09721253
104	0x3d0ba1a6	0.034089707
105	0xbf3afe21	-0.7304402
106	0xbf545fbc	-0.8295858
107	0xbeed6768	-0.46367955
108	0xbe0532e8	-0.130077
109	0xbd85a29d	-0.06525157
110	0xbe010717	-0.12600361
111	0x3f2a9abb	0.6664235
112	0xbe6f64e8	-0.23378336
113	0xbf2f964b	-0.68588704
114	0x3e6c9088	0.2310201
115	0xbf57750d	-0.8416298
116	0xbe9c046f	-0.30472133
117	0x3e95e18a	0.29273635
118	0xbe5dc515	-0.21657212
119	0x3ea2b12f	0.31775805
120	0xbf2fce5c	-0.68674254
121	0xbefe7b1e	-0.49703306
122	0xbda65323	-0.08121326
123	0xbe6b2753	-0.2296422
124	0x3e61ea94	0.2206214
125	0xbe982081	-0.297123
126	0xbe8ff8bd	-0.2811946
127	0x3d21540a	0.039386787
128	0xbdb59dcb	-0.08867987
129	0xbe94afa2	-0.29040247
130	0x3e76011e	0.24023864
131	0xbea1d470	-0.3160739
132	0x3c787d62	0.015166612
133	0x3f85ae61	1.0443841
134	0x3c549535	0.012975027
135	0x3b033771	0.002002206
136	0xbe94c147	-0.2905371
137	0xbdf00a94	-0.117207676
138	0xbf85decb	-1.0458616
139	0xbe82ea06	-0.2556917
140	0x3f7e9bc8	0.99456453
141	0x3a8081b8	0.0009804284
142	0x3e1f7c95	0.15574868
143	0xbed499ab	-0.4152349
144	0xbd789840	-0.060692072
145	0xbe81d57f	-0.25358197
146	0x3e9d4e5e	0.30723852
147	0xbe19ccb0	-0.15019488
148	0xbe54cc52	-0.20781067
149	0xbda0ba30	-0.078480124
150	0xbf880ae2	-1.0628321
151	0x3faf03b4	1.3673005
152	0x3fa9e4b1	1.3272916
153	0x3e81a8d4	0.25324118
154	0x3e9919fa	0.2990263
155	0xbde5239b	-0.11188432
156	0xbeb17b43	-0.34664354
157	0x3dd28085	0.102784194
158	0xbc2325ef	-0.009957775
159	0xbf889e0f	-1.0673236
160	0xbf7c9b8c	-0.98674846
161	0xbe9dbbf8	-0.3080747
162	0x3e26345a	0.16230908
163	0xbe601f34	-0.21886903
164	0xbeab7fb8	-0.3349588
165	0x3d74785e	0.059685104
166	0x3d2ed1e5	0.04268064
167	0x3ea5d54a	0.3238929
168	0xbe0627a4	-0.13101059
169	0x3e80e8b3	0.25177535
170	0xbe2754ae	-0.16340896
171	0xbf44a347	-0.7681164
172	0xbf929259	-1.1450912
173	0xbcf454e1	-0.02982563
174	0xbec70be0	-0.38876247
175	0xbe8ab165	-0.27088466
176	0xbe2a958e	-0.16658613
177	0x3ca200fb	0.019775858
178	0x3f009ad0	0.50236225
179	0xbe2de8d4	-0.16983348
180	0x3cebe0d9	0.02879374
181	0x3e83a1b1	0.25709298
182	0x3e8e610c	0.27808416
183	0xbf2ad748	-0.66734743
184	0x3f7be065	0.98389274
185	0x3e1391fc	0.14411157
186	0x3e4095a8	0.1880709
187	0xbe35f357	-0.17768608
188	0x3e95df34	0.29271853
189	0x3e117f7f	0.14208792
190	0x3f0f4d03	0.55976886
191	0xbe3d0b13	-0.18461256
192	0xbd52f887	-0.051506545
193	0x3e1e317f	0.15448569
194	0x3d43e485	0.047825355
195	0xbd6a169c	-0.05715047
196	0x3e7ec2da	0.24879017
197	0x3df4f98d	0.119616605
198	0x3ed21250	0.41029596
199	0x3d7d8439	0.061893675
200	0xbd01434e	-0.031558327
201	0xbee90d8a	-0.45518142
202	0x3dc7d6e1	0.09757782
203	0x3f477bcd	0.7792328
204	0xbdd31912	-0.10307516
205	0xbe8503da	-0.259795
206	0xbf0baf7b	-0.54564637
207	0x3f092394	0.5356991
208	0x3e32624a	0.17420307
209	0x3e5b5d40	0.21422291
210	0xbe528082	-0.20556834
211	0x3e518693	0.20461492
212	0xbe021533	-0.127034
213	0x3eefd838	0.4684465
214	0x3ede774e	0.43450397
215	0x3dee2b7d	0.116293885
216	0x3fb4a145	1.4111716
217	0x3d8a2d5d	0.067469336
218	0xbe18c0c1	-0.1491728
219	0x3e83757d	0.25675574
220	0xbf25fffa	-0.64843714
221	0xbdfe72cd	-0.1242424
222	0xbec1caaf	-0.37849948
223	0x3e6afb58	0.22947443
224	0xbbe7afe6	-0.0070705293
225	0xbe2187d3	-0.15774469
226	0xbe19a349	-0.15003695
227	0x3f097b69	0.53703934
228	0xbdcdf278	-0.10056013
229	0x3f3392f8	0.7014613
230	0x3e8babf3	0.27279624
231	0xbd8fd728	-0.0702346
232	0x3e64b30c	0.22333926
233	0x3f0c3104	0.5476229
234	0xbf4ae403	-0.7925417
235	0xbee9098a	-0.4551509
236	0xbeab086f	-0.33404872
237	0x3e3c1760	0.18368292
238	0xbe8fa2bb	-0.2805384
239	0x3f532ee1	0.82493407
240	0xbeb826ca	-0.35967094
241	0xbf40038c	-0.7500541
242	0x3e37a9a8	0.17935812
243	0xbe2242cb	-0.15845792
244	0xbf14a9ed	-0.58071786
245	0xbdb65540	-0.08902979
246	0x3d1102ef	0.03540319
247	0x3e756ecc	0.23968047
248	0xbf81bb20	-1.0135231
249	0xbf637ef4	-0.8886559
250	0x3de7473a	0.11292882
251	0x3e72fdd8	0.23729646
252	0x3e322943	0.17398553
253	0xbdb97056	-0.090546295
254	0xbe953d0a	-0.29148132
255	0xbe3caf32	-0.18426207

fc.bias f4 [62]
0	0x3de49fa7	0.11163264
1	0x3e039030	0.12847972
2	0xbe91efe0	-0.28503323
3	0xbe644d10	-0.22295022
4	0xbbe0d148	-0.006860886
5	0xbc9740c7	-0.018463505
6	0xbe487963	-0.19577555
7	0xbdf397ba	-0.11894174
8	0xbdbc4335	-0.09192506
9	0xbe5147ce	-0.20437548
10	0xbe3de916	-0.18545946
11	0x3cbae53f	0.022814391
12	0xbd732bee	-0.059368066
13	0xbc94c086	-0.018158209
14	0xbdf97bbe	-0.12181805
15	0xbb888b7d	-0.004167019
16	0xbd76c014	-0.060241774
17	0xbc8b64d8	-0.01701586
18	0xbd0cfec0	-0.034422636
19	0x3c729476	0.014805904
20	0xbe506bc5	-0.20353611
21	0xbc90295a	-0.017597843
22	0x3d380454	0.044926003
23	0x3d8eccc9	0.069726534
24	0x3c60db9e	0.013724236
25	0xbdf65628	-0.12028152
26	0xbe384cc9	-0.17998041
27	0xbd6770ce	-0.056504063
28	0xbdd33e16	-0.10314576
29	0xbba69cbd	-0.0050846026
30	0xbc9caa0e	-0.019124057
31	0x3da178bc	0.078843564
32	0xbdfa6e30	-0.12228048
33	0xbd8f0387	-0.06983095
34	0xbe0f55c9	-0.13997568
35	0xbe65ce4c	-0.22441977
36	0x3de075e6	0.10959987
37	0xbe19c82e	-0.15017769
38	0xbd02578b	-0.03182177
39	0xbc62e50a	-0.0138485525
40	0x3dd6e9d5	0.10493819
41	0x3d091062	0.03346289
42	0xbdd6e507	-0.10492902
43	0x3bf31071	0.0074177315
44	0x3dda0103	0.10644724
45	0xbe0187a9	-0.12649406
46	0xbe5b0db9	-0.21391954
47	0x3ddd7685	0.108136214
48	0xbc8d8080	-0.017273188
49	0x3e2d7d5f	0.16942357
50	0x3ddf6eb5	0.109097876
51	0xbdc99638	-0.09843105
52	0xbec66b6d	-0.38753834
53	0x3bd4e02b	0.0064964495
54	0x3ade7875	0.0016973155
55	0x3d0c3e97	0.034239378
56	0x3d847a18	0.064686
57	0xbd5a3d78	-0.053281277
58	0xbe2eb701	-0.17061998
59	0xbe9dc94d	-0.30817643
60	0xbd50f099	-0.0510107
61	0xbe60e413	-0.21962003
