HW-03/model/rnn.pth (torch, 132448 bytes, 6 tensors)

rnn.weight_ih_l0 f4 [128, 62]
00000000: 1985 0f3f bef2 133e dfea 423f f102 1d3f
00000010: 6d63 9e3d 1fea 32be 0bb6 0c3f c46b 513f
00000020: 3b7b f23e f1e0 163d 1af6 2b3f 2224 4dbf
00000030: d024 60bd 393a c9be 65b3 a0bf a416 2bbf
00000040: 77e5 4cbe 7427 e0be 0aff 8e3e c64f 22bf
00000050: 4fb0 51be 09c4 7cbe 6470 0fbf c882 90be
00000060: d78b d6bd c03e 24bf 47a2 a0be 4d6d 46bd
00000070: 53ed 853f 5029 4b3f d04c ea3e 304f 96be
00000080: f51e 84bf 6d56 fb3e c613 7abe 7910 bcbe
00000090: 2311 53bf 9e18 393f e2d9 5a3f 98a7 ebbe
000000a0: 313c 68bf 8414 763e 5fa3 08bf b2e0 323f
000000b0: 0358 5abe 03f6 80be a8d3 1f3f 6cf3 83be
000000c0: 0211 423f 2e8e ef3d 604c 70bf 000f a63d
000000d0: f4fa 5a3f 309c 6abe 94c5 e23e b6ae d23e
000000e0: 9070 3cbf cbc8 893f 2a9a d53e 2035 1dbe
000000f0: 7cb2 7e3f 5031 c93d 9fab 4abe 9499 1b3e
00000100: bdcd 45bf aedc 10bf 46df 86bf 9e76 d53e
00000110: dcf2 0fbf 64d0 98bf 62ce 9a3c 7b9f 233f
00000120: 2ffa 1ebf 7f95 c03c 86fc 9bbd 570a 25bf
00000130: 1d74 7bbf a871 da3d 38c6 983f b27c cd3f
00000140: 7994 0f3f d9ca 89bf 5cb1 0c3d c8d9 cf3e
00000150: 938a 663f 94ad 623e 7295 d9be d7db 16bf
00000160: cdc2 5c3e 6769 c9be 2319 febe 6e65 473d
00000170: 8384 07bf b2c2 3fbd 8abe ed3d 3af8 6abe
00000180: e39f b53e c671 d63e 9503 c5be ce68 823e
00000190: e912 073f a6b6 0d3f 9e0f fe3d 22e3 f73e
000001a0: 613d b53f 78f8 553b ff51 b03e 4117 973f
000001b0: f86c 5fbe 3a7d f43c 6956 0fbf 8360 923f
000001c0: 9732 093f a39c 49bf d55e 2ebf dc96 0f3f
000001d0: 6784 0cbe 1133 923d cf94 24be 5e2d e5bd
000001e0: e34a 7fbe 4da9 363e 79be 703f ef2d 3e3e
000001f0: f2a2 3bbf 1bf7 3ebf d99a 013f 933b 88be
00000200: 2ac2 113f cfb8 ab3d 298f 56be 91c3 2c3f
00000210: ddb4 0abe 397a f73d a453 033f 3806 13be
00000220: 63ab 063e 92ea b03e d8cc 4c3f 3172 673e
00000230: edc3 5e3f 005e 55bd 441d 523e 7582 2ebf
00000240: c1b7 963e 8f3a e43e 8eb4 32bf 696b 8d3e
00000250: ecce 923d a0ee 08be b801 333c 379d 79bc
00000260: 44e9 91bd 0776 a93d 2e19 83be ffcc 59bf
00000270: 9296 493f 8245 d8bd d017 043f 8c08 81be
00000280: 4588 6abe 45e9 803e cccd 3f3f 8ecf 0c3e
00000290: 5688 03be 5f19 ca3f a416 983e 9c09 2fbe
000002a0: 2435 d3be 5f02 66bd 9337 8d3f ffd6 3c3f
000002b0: 59f8 23be d2f8 d63d 04c7 9c3e 902e 463f
000002c0: a823 c23e b17e c0be d74a 3a3f 1484 e43d
000002d0: a06e 73be cff3 b53e 13e0 243f 9cfc b73e
000002e0: 49ed 9f3f 2552 ae3d 6bc7 093e 21e3 85be
000002f0: 4762 c93d fd66 903d 5715 febe 56c0 163e
00000300: 3b55 523f ed0d d3bd dabe 9a3e b96e d53d
00000310: def1 f73d 5d27 bd3e 8bc3 8abe 922c 36be
00000320: 47fb c43d 6904 53bf 70b5 43bf 362d 583f
00000330: 485a aa3d 19e2 603e a343 193f a338 083f
00000340: 4a9b 9f3f c035 0fbf 43ce 8cbf b2d1 593f
00000350: 362b 243f 201b 253f f14f 09bf dc7e 8c3e
00000360: 3a17 4ebf 58d3 7e3e 1002 62bf dda7 833f
00000370: e6ad 6d3f 473c 3d3f 05f6 64bf aed0 643e
00000380: 0de3 b2be 6381 17be 2da8 6dbe b079 d53e
00000390: f0f8 c0bf e99b b4bf 1008 f23e 01e7 02bf
000003a0: bfd9 533e 5c9f 4f3f abaa 9ebe 6bfe afbe
000003b0: c322 7d3e cfd3 aa3e 8abb a33e 9543 bf3e
000003c0: 8b2d 3abf 9ce8 24be 2da8 76be 2739 16bf
000003d0: aac7 2e3f 6b0a fabd 923d a53f ff5d 00bf
000003e0: d6e0 9dbe 8374 473f 010b 2dbf e642 243f
000003f0: c923 ee3d 8de0 ebbe d955 cf3d b533 f9be
0.56062466 0.14448068 0.76139635 0.61332613 0.07733808 -0.17472123 0.54965276 0.8180506
0.47359642 0.036835615 0.67172396 -0.8013326 -0.054722607 -0.39302233 -1.2554747 -0.6683142
-0.20009409 -0.437801 0.27928954 -0.63402975 -0.20477413 -0.24684156 -0.5603087 -0.28224778
-0.10475891 -0.6415825 -0.31373808 -0.04844408 1.0463051 0.7935991 0.45761728 -0.2935729
-1.0321947 0.49089375 -0.24421605 -0.36731318 -0.82448024 0.7230319 0.8548871 -0.460263
-0.90716845 0.24031264 -0.53374285 0.6987411 -0.21322636 -0.25187692 0.62432337 -0.25771654
0.758072 0.116970405 -0.9386654 0.0810833 0.85539174 -0.22911143 0.44291365 0.4114892
-0.73609257 1.0764402 0.4171918 -0.15352297 0.99491096 0.09823859 -0.19792031 0.15195304
-0.77267057 -0.5658673 -1.0536888 0.4169206 -0.5622995 -1.1938596 0.01889724 0.6391522
-0.621005 0.023508785 -0.076165244 -0.644689 -0.9822405 0.106662095 1.1935492 1.6053679
0.56085926 -1.0765029 0.03434883 0.4059584 0.900552 0.22136527 -0.4249683 -0.589292
0.21558686 -0.39338228 -0.49628553 0.048680715 -0.5293657 -0.046816535 0.11608608 -0.22946253
0.35473546 0.41883677 -0.38479295 0.25470585 0.5276323 0.55356824 0.124053225 0.48415476
1.4159356 0.003264932 0.34437558 1.1803972 -0.21818912 0.029844869 -0.55991226 1.1435703
0.5359282 -0.78754634 -0.6811345 0.5608957 -0.13722382 0.071386464 -0.16072391 -0.11190294
-0.24930911 0.1783802 0.9404064 0.1857221 -0.7329551 -0.74595803 0.50626904 -0.26607952
0.56936896 0.08384859 -0.20953049 0.6748591 -0.13545556 0.12083859 0.512995 -0.14357841
0.13151316 0.34553963 0.80000067 0.22602154 0.8701771 -0.0520916 0.20518976 -0.6816781
0.29437068 0.44575927 -0.69806755 0.2762101 0.071683735 -0.13372278 0.010925703 -0.015235237
-0.0712457 0.08274465 -0.25605148 -0.85078424 0.7874538 -0.105601326 0.51598835 -0.25201833
-0.22903545 0.2517797 0.74923396 0.13751051 -0.12844977 1.5788993 0.29704773 -0.1709351
-0.4125148 -0.056154605 1.1032585 0.7376556 -0.16012706 0.104966775 0.30620587 0.774148
0.3791783 -0.37596658 0.72770447 0.111580044 -0.23772669 0.35537574 0.6440441 0.35934913
1.2494289 0.085117616 0.13454978 -0.26149848 0.09833198 0.070508935 -0.49625656 0.14721808
0.821613 -0.103053905 0.30223733 0.10421509 0.121066794 0.36944094 -0.27102312 -0.1779044
0.0961824 -0.82428604 -0.76448727 0.84443986 0.08318001 0.2196125 0.5986883 0.5321142
1.2469265 -0.5594139 -1.1000446 0.85085595 0.64128435 0.64494514 -0.53637606 0.27440536
-0.8050419 0.24885309 -0.882844 1.0285603 0.9284347 0.739201 -0.89437896 0.2234523
-0.3493885 -0.14795451 -0.23208685 0.41694403 -1.507597 -1.411008 0.47271776 -0.51133734
0.20688532 0.8110254 -0.30989584 -0.34373793 0.24720292 0.33364722 0.31979018 0.37356248
-0.72725743 -0.16104358 -0.24087591 -0.5868096 0.68273413 -0.12209018 1.2909415 -0.50143427
-0.308356 0.7791216 -0.67594916 0.6416458 0.11627919 -0.46069756 0.10123796 -0.48672262

rnn.weight_hh_l0 f4 [128, 128]
00000000: dd3e 6d3c f163 cd3d 5ba8 b7bc 1a5b 913d
00000010: 7cc7 b3bc 64dc 10bc 2473 d53d 7d5e 1fbc
00000020: 4750 093e ebb7 29bd f134 4cbd fd7b 9b3d
00000030: f4d1 eabd 84f6 ccbd 0611 91bb 3fa9 ac3d
00000040: 0cd4 763d 1817 953d c8db a8bd 6705 793b
00000050: bca2 73be b415 37be 3cef 5dbe 3ca9 df3d
00000060: b8ed ab3c 5cf3 653d 66db f738 f39a 8dbe
00000070: 10bf 3fbe 6e0d 833c 0027 afbd 3c00 2cbe
00000080: 47bd acbc eccc 9cbe 8d56 af3c 1da4 c6bd
00000090: 8bc7 7d3d 2848 973c 7650 00bd b43a 46bd
000000a0: cc88 813e c0b7 2ebd 2fd1 0e3e a88e a4bb
000000b0: c5b6 65ba 345d 253c 2c05 d6bc 1133 7ebd
000000c0: 3147 2dbe bad3 123d c77d 5a3e 9d7a 183e
000000d0: a429 22be 405e 023d e077 dcbd 1c99 5a3d
000000e0: f3b7 183e 91d1 ab3d bab5 a9bc 468a 6abe
000000f0: 6268 36be bde1 883d 9666 87bc e2ae 803e
00000100: 1acd e2bd a6de b23d 00bb 7abd 0f27 c1bd
00000110: c152 9b3c 8923 9dbd 3df3 9f3c 3bbe dabc
00000120: 822a febd a157 5a3d 1e32 0ebe f773 0fbe
00000130: 9fb7 91bd f794 793e 74ee 02be b710 42bd
00000140: 5ecb e1bd 1549 5abd b2ef d8bc 7db2 c7bc
00000150: 44f0 fb3d daa0 fdbd dc90 543c a716 0d3e
00000160: e3a3 8f3b 4767 86be cffd f73c 3162 80bd
00000170: 2588 62bc 1faf b5bc b53e 2cbd f1bc cd3d
00000180: 602b 2cbe 5f18 7e3e 2efe 38bd c604 e13d
00000190: 0cb6 ce3d 8472 383d bd89 90bc 3eeb 753d
000001a0: 765c 96bd 1c90 c13d e83b 23bd 0d65 afbc
000001b0: db79 a03c 9659 aa3d 1d90 2d3d 9440 c8bb
000001c0: 975c b83b 98aa 543c 4037 023d d95d dfbb
000001d0: 272d 3cbd ed98 63bd c02c b2bd cf4e abbe
000001e0: 09f4 d7bc fd27 f3bc 7cb8 48bd 91ca b2bd
000001f0: cec2 143d c4df cc3b 0d5e 61bc 0cb8 be3d
00000200: 8d09 75bd bd94 0a3e 78bb 683d 4001 07bc
00000210: c910 ea3d 53c0 dcbd be13 073e 01e1 62bd
00000220: 69e5 18be fc9f 27bd 6971 3dbd 6924 563d
00000230: 9300 1b3d e07e 96bc 990d 103e ebc2 303e
00000240: f1fa 51be bd7a e2bc f1d5 31be ea89 15be
00000250: 3dbc 04be 4455 8ebd a40e 4abd 9d99 223e
00000260: 2990 3fbd c667 2bbe 438a afbd 1daf e5bd
00000270: a323 1fbe be6a 97bc 580f 9a3b 34d1 7b3d
00000280: 6029 9dbd 2a5d 333c 541a 073e a5fa 223e
00000290: 8d93 cdbd 21c1 6b3d 0215 e93d 2a39 aabd
000002a0: a6b4 843c 969b 493d 99ca 83be 0646 6e3e
000002b0: 41fd efbc 07cb 6e3c 8a91 9abd 38b0 42bd
000002c0: 532b c9bc 97c9 763d 2749 d1bd 4b27 8ebd
000002d0: 54cf 373e 533d 8b3d 00f7 913d 656c 63be
000002e0: 0ee8 363e b9e0 1abe 4e50 87be 080a 923d
000002f0: 486f 4fbd 830a 843d 5c88 543d 852a 07be
00000300: 0a95 dc3c 9eca a9ba ecb1 663c 3355 44bc
00000310: 9a69 bfbd 60c0 5dbd 3f0c 59be 71b2 a9bd
00000320: 5742 c0bd e942 9bbe fd13 46bc 5f60 0bbe
00000330: 468b 863d 5322 3a3e e881 ddbd f4ee 28be
00000340: 8661 ff39 2c51 cb3d c70e 983d a66e 873d
00000350: e4f6 053d ecee 773e b988 5fbd d9fd 313d
00000360: 7026 d0bc 93ca c33d 1299 16bc ff5a fa3b
00000370: 70e9 ca3d f7da 783e ef5d 943d 1890 4fbc
00000380: 97a4 ba3c 04ff 17bd 4c83 bdbc a1b3 2f3e
00000390: b4b3 bcbb 5f7b 85bd 8c8e 263d d90c 63bd
000003a0: 3fe1 4ebe 951d 0cbc d51c 343c 8ac7 063e
000003b0: 0f63 5b3d 6e79 71bd e7f2 65be 3246 7a3c
000003c0: 17b4 673d 2000 a3bd 0cdc 2fbd 7ef7 b13d
000003d0: 8d6d 34be e718 72bd 3037 39bd 33e9 7d3d
000003e0: c542 d33c 5ec1 0dbe 2fa1 943d e300 8d3d
000003f0: b1a7 76bd 8245 68be 97a8 b53d 4218 3a3d
0.01448032 0.10028828 -0.022419145 0.07097454 -0.021945707 -0.008841608 0.10422352 -0.009727118
0.1340953 -0.041435163 -0.049855176 0.07592008 -0.11465827 -0.100079566 -0.004427078 0.08430719
0.060260817 0.072797954 -0.08245045 0.0037997605 -0.23792547 -0.17879373 -0.21673292 0.10920951
0.020987377 0.05614029 0.00011818744 -0.2765728 -0.18725228 0.015997615 -0.085523605 -0.16796964
-0.021086348 -0.30625093 0.021403575 -0.09699271 0.061957877 0.018467024 -0.031326734 -0.048395827
0.2529968 -0.042655706 0.13946985 -0.0050218888 -0.00087628915 0.010093022 -0.026125513 -0.06206042
-0.16921689 0.03584645 0.21337043 0.14890523 -0.15836197 0.031828165 -0.10765052 0.053368673
0.14913921 0.08389581 -0.020716537 -0.2290431 -0.17813256 0.06683681 -0.016528409 0.25133425
-0.11074276 0.08733873 -0.061213493 -0.09431278 0.018960359 -0.076727934 0.019525165 -0.026702037
-0.124104515 0.053306226 -0.13886306 -0.14009081 -0.07115101 0.24373232 -0.12786275 -0.04737922
-0.11025117 -0.053292353 -0.026481483 -0.024377102 0.123016864 -0.123841956 0.01297399 0.13778172
0.0043835505 -0.2625067 0.030272393 -0.062687285 -0.013826405 -0.02217823 -0.04205199 0.10045803
-0.16813421 0.24813984 -0.04516428 0.109872386 0.100933164 0.045031086 -0.017643804 0.060038798
-0.07341854 0.09451315 -0.039852053 -0.02141049 0.019589355 0.083178684 0.042373765 -0.006111214
0.005626272 0.012980126 0.03179097 -0.0068166074 -0.045941498 -0.055565763 -0.08699942 -0.33458564
-0.026361482 -0.029682154 -0.049004063 -0.08730043 0.036318593 0.006252261 -0.013755334 0.09312448
-0.05982356 0.13533302 0.05681941 -0.008240044 0.11428983 -0.107788704 0.13191125 -0.05539036
-0.14931263 -0.040924057 -0.046250734 0.052280817 0.037842344 -0.018371046 0.14067687 0.17261855
-0.20505883 -0.027646417 -0.17366768 -0.14603391 -0.12962432 -0.06949857 -0.04933037 0.15878911
-0.04676834 -0.16738805 -0.08571293 -0.11215041 -0.15540938 -0.018483516 0.004701536 0.06147881
-0.07673907 0.010947505 0.13193637 0.15915926 -0.10037909 0.05755723 0.1138096 -0.083116844
0.016199421 0.049220644 -0.25740507 0.232689 -0.029295566 0.014574773 -0.075472906 -0.047531337
-0.024556791 0.060250845 -0.10219031 -0.06941088 0.17950183 0.06798806 0.0712719 -0.22209318
0.1786196 -0.15124787 -0.26428455 0.071308196 -0.050643235 0.064473175 0.051887855 -0.13199814
0.026926536 -0.0012954061 0.014080506 -0.011983204 -0.09346314 -0.05413854 -0.21196078 -0.08285988
-0.09387653 -0.30324486 -0.0120897265 -0.13610981 0.06569533 0.18177156 -0.10815793 -0.16497403
0.0004871005 0.09927592 0.074246936 0.066129014 0.032706156 0.24212235 -0.05457375 0.04345498
-0.025408953 0.09560122 -0.009191768 0.007640242 0.09907806 0.24302278 0.07244479 -0.012668632
0.02278356 -0.037108436 -0.023133896 0.17158367 -0.005758727 -0.06517672 0.040663287 -0.055432174
-0.20203112 -0.008551975 0.010993202 0.13162056 0.053561267 -0.058953695 -0.22455941 0.015275525
0.05656823 -0.07959008 -0.042934462 0.086897835 -0.17619915 -0.05910578 -0.045218647 0.061989974
0.025788674 -0.13843295 0.07257306 0.06884935 -0.060218517 -0.22682765 0.088700466 0.04543329

rnn.bias_ih_l0 f4 [128]
00000000: d475 c5bd e24e 2e3e 81c5 4e3e e706 02be
00000010: 0a3e 4ebd 852f 9cbc 8833 833d debf ddbc
00000020: 45ed ba3d 4863 c6bd 345f a2bc 18a0 07be
00000030: 88b7 ae3d deac 41bd 0c14 5cbd 894d c5bd
00000040: be62 46be 2384 b5bd 4d4d 39bd 7d4e 8bbd
00000050: 2a58 4cbd 3e08 1a3e 005f 1d3e c8e1 97bd
00000060: 79c5 b93c d3ec 3c3e a2ad 75bd 2261 f5bd
00000070: 944b 953d d689 253e 55b9 45be 34d9 05be
00000080: 020d 02be ceab 8fbd b63a c0be 9e63 2abe
00000090: 3b46 b63c 6e31 2f3e f132 1fbd cd51 253e
000000a0: bb1c 503e c434 29bc 96e1 9dbd 53bd c83d
000000b0: 01df 5cbd e542 4dbd 7c0b de3d d2bd 2ebe
000000c0: a1f0 243e c22d 8f3d 50dc b23d 5a8f f0bd
000000d0: 08d3 c53d b760 6abd acc1 1a3c ae72 1e3e
000000e0: 58e8 163e 96a6 f9bd 84f4 9bbc c628 603d
000000f0: 4d98 b23d 2224 93bd 3d5b 323e d8c4 6e3e
00000100: 137f debd 72b2 84bd b7e6 123d 59ca eebd
00000110: d00a c43b c221 4ebe c254 403e 71f4 a23d
00000120: 6c7f d5bd 3e8b 2fba 1b58 1cbe 5e3d f6bd
00000130: 145d 25be 73f6 fd3d c963 40bc 69b7 083d
00000140: f149 093e f02a 463e 5ae7 29bd 9254 04bc
00000150: 7036 80be 3191 a03e 929e 87bc ed4b 23be
00000160: 3206 2cbe be17 5ebd 07ca 2b3e 337c 423e
00000170: 26a8 f3bd f069 b63d d02a d63d 76ef 82bd
00000180: 69b0 b7bd 975b 37be 6b13 dcbc 105d 323b
00000190: f08d 053e aa13 083d 0f59 7d3d 5785 0c3e
000001a0: 4833 663d 9e93 68be 22d6 1c3d c477 5ebe
000001b0: cdd4 3cbe e444 3fbe 746e 05bd 8765 38be
000001c0: e341 143e c7fe 52bd 0ec1 2cbe 4a78 94bd
000001d0: 3461 04be daab da3d 6275 363d 00e2 28be
000001e0: 0560 ab3d 6fda 89bc 0fa8 2d3e 464e c1bc
000001f0: 0280 7cbd bd38 0fbe a0f8 503e bbe4 b43d
-0.096416146 0.17022279 0.2019253 -0.12697946 -0.050352134 -0.019065628 0.06406313 -0.027069028
0.09127287 -0.09686905 -0.019820787 -0.13244665 0.085310996 -0.047284 -0.053730056 -0.09633929
-0.19373605 -0.08863094 -0.045239735 -0.0680208 -0.049888767 0.15042207 0.15368271 -0.07416111
0.02267717 0.18449716 -0.059980042 -0.11981417 0.07289806 0.16165861 -0.1930898 -0.13071138
-0.12700275 -0.07015191 -0.37544793 -0.16639563 0.022250285 0.171087 -0.03886694 0.16144486
0.2032346 -0.010327522 -0.07709043 0.09801736 -0.05392361 -0.050112624 0.10842034 -0.17064598
0.16107418 0.069911495 0.087334275 -0.11746092 0.09659392 -0.05722114 0.009445589 0.15473434
0.1473707 -0.12189977 -0.019037493 0.054726385 0.08720455 -0.07184626 0.17417617 0.23317277
-0.10864081 -0.06479348 0.035864558 -0.116596885 0.0059827343 -0.20130065 0.18782333 0.0795678
-0.104246944 -0.0006696469 -0.15267985 -0.120234236 -0.16148788 0.12400522 -0.011742541 0.03337804
0.13407113 0.19352317 -0.0414804 -0.008076804 -0.25041533 0.31360772 -0.016555104 -0.15946932
-0.16799238 -0.05422186 0.16776286 0.1899269 -0.11897306 0.08906925 0.104573846 -0.0639333
-0.089691944 -0.17906033 -0.026864728 0.0027216114 0.13042426 0.033221878 0.06185251 0.1372274
0.05620125 -0.22712561 0.03829015 -0.21725374 -0.18440552 -0.18678623 -0.03257604 -0.1800748
0.14478259 -0.051512506 -0.1687052 -0.07249506 -0.12927705 0.10677309 0.04454554 -0.16492462
0.08367924 -0.01682779 0.1695864 -0.023596894 -0.061645515 -0.13986488 0.20407343 0.088326894

rnn.bias_hh_l0 f4 [128]
00000000: 53d3 30bd 734e b63d e0ab c83d d0cf 33be
00000010: d969 85bd 2f0c b8bd 4c4e d53d 82f4 ecbd
00000020: 9505 c73d 8a0b 91bd 248e 103e 0c7a 3abd
00000030: 0b1f ce3d b59f 9bbd e207 3f3d 6785 4bbd
00000040: 0567 b3bd 180e 2ebe 882e e1bd d84d b4bd
00000050: 9f82 76bd a723 063e ab00 863e bc32 8dbd
00000060: f4cc d03d aea5 493e ebf5 1cbe f88c a8bd
00000070: 87d4 4f3e 1103 fb3d f6e8 fdbd 6d23 73be
00000080: 9549 d5bd 6f28 9dbd 5e80 90be 9d96 79be
00000090: 3795 883d 6aca 253e 7dab fa3c 2205 553e
000000a0: 0239 503d 53f6 d7bd 3a6d b5bd e5b7 9e3d
000000b0: f1d0 fabd 70b6 71bc 5052 9c3d 7e12 4abd
000000c0: 6bcb 463d afaf fb3d f895 2e3e 1621 f3bd
000000d0: f99a 053d 3209 4f3d a417 c9bd 8a1f ec3d
000000e0: 832f 673e 11fc 41be 6904 91bd 118f 8b3d
000000f0: d66a 0d3e 4cd3 03bd 46bb 453e 4ad6 a13e
00000100: 6c5a bcbd 5533 08be 5646 36bc db61 b8bd
00000110: 8fa0 8ebc ab8f dbbd 0b20 853e 7c54 223e
00000120: 501e 42bd 6931 fc3b 4641 953c 92d7 a4bd
00000130: d1f5 a5bd 4bbd 873d db14 533c 10e4 a73c
00000140: 22cb 573d d870 193e ce80 983d 203e fbbd
00000150: fe17 3ebe e750 383e 08bd 08be e432 66be
00000160: c540 8ebd 3793 9dbd 7ca4 4d3e e355 7b3e
00000170: 48e5 18be 304e 8d3c 7fb3 a13d 74c0 afbd
00000180: ef79 98bd 0834 c0bd e55f ccbd 334b a43d
00000190: 5d0b 6e3e 79d4 bb3c d61f 253e 7e7f 463e
000001a0: 2c4c c83d 7e28 4bbe d965 a03c 9982 4ebe
000001b0: 87fb 18be 6ad6 0fbe db05 85bc 08b5 2abe
000001c0: 8c01 203d 12bd 343d ea3b d6bd 8ff4 d2bd
000001d0: ce17 18be 59af 663e 8b54 ed3b f2ec 1dbe
000001e0: eeea 263e df51 3bbd fc25 0d3d 6b2f 123d
000001f0: c57d d5bc e9a0 15be 6b21 723e b8ad 093e
-0.043170284 0.08901682 0.097984076 -0.17559743 -0.065143295 -0.08986699 0.104153246 -0.11570074
0.097178616 -0.07082279 0.14116722 -0.04552655 0.10064515 -0.07598821 0.046638377 -0.04968777
-0.08759884 -0.16997564 -0.10995203 -0.0880391 -0.060183164 0.13099538 0.26172385 -0.068944424
0.10195342 0.19692108 -0.15328185 -0.08230013 0.20295916 0.12256444 -0.123979494 -0.23743983
-0.10414425 -0.07673728 -0.28222936 -0.2437386 0.066690855 0.16190496 0.03059935 0.2080274
0.050835617 -0.105450295 -0.08858724 0.07749919 -0.12246884 -0.014752969 0.07632887 -0.04933404
0.04853384 0.12289368 0.17049396 -0.11871545 0.032618497 0.05054588 -0.09818962 0.11529453
0.22576718 -0.18943812 -0.07080919 0.06814397 0.13810286 -0.03218393 0.1930972 0.31608802
-0.09196934 -0.13300832 -0.011125168 -0.090030394 -0.017410545 -0.10720762 0.2600101 0.1585254
-0.04739219 0.00769632 0.018219601 -0.08048929 -0.081035264 0.06627902 0.01288339 0.02049449
0.052683957 0.14984453 0.074464425 -0.12267709 -0.1856384 0.17999612 -0.1335336 -0.2248035
-0.069459476 -0.07694095 0.20082277 0.24544482 -0.14931214 0.017249197 0.07895564 -0.085816294
-0.07445132 -0.09384924 -0.09979228 0.080221556 0.23246522 0.022928463 0.16125426 0.19384572
0.09780154 -0.19839665 0.019579815 -0.20167007 -0.149397 -0.14046636 -0.016238144 -0.1667062
0.039063975 0.044125624 -0.104606465 -0.10300552 -0.14852831 0.22527827 0.0072427443 -0.15422419
0.16300556 -0.045732375 0.034460053 0.035689753 -0.026060948 -0.14612164 0.2364556 0.13445175

fc.weight f4 [62, 128]
00000000: 4084 e73d 1288 49bb 87c0 cf3e 7774 153e
00000010: 7e89 19bf fbf3 643e 4c8c de3d 3d52 be3e
00000020: ddee a63e 3b28 25bf d1bd e2bd fee1 33be
00000030: 453c 0e3f 2afc 90be fa9e a5be bbc0 473e
00000040: acdc 9cbb e3cd bf3e b6ef 2c3c 2b2f 4b3d
00000050: 2ae7 abbd 767f 05bf 76e9 0dbd 2dce 233e
00000060: 6f43 4a3e 50c1 16be 1c8d 11bf 5d87 013e
00000070: 7690 4e3e 1a26 383e ddff b9bd b8af 54be
00000080: f0aa ff3e a331 07be 476a dbbe 6587 85be
00000090: 7421 613e ee49 f1bd 34d7 2dbf 284d fc3d
000000a0: eaf2 93bd 5bb2 ff3d 00d8 af3e 9629 69be
000000b0: d6b2 ae3e bca6 e4be c793 d7bd 9998 ce3e
000000c0: 0acd 063f aff8 e83e 884b 0b3f 7ee4 35bd
000000d0: 890a b63d d154 fa3e bf06 90be 0c1b 89bd
000000e0: 8055 c63e a166 f5be 33e4 3fbe e1cb 923e
000000f0: 9f1c 12bf c1c6 903e 19b2 2d3c dfd5 213f
00000100: 8cc5 ebbe e376 3dbe d657 10bf b3a9 a1be
00000110: c8a4 b83d 01e1 c73d d6ce 1fbe 82bc d4bb
00000120: e0ca 1a3f 1f7a 043e ddc1 15bf 3b80 fbbe
00000130: 08a4 1bbf 7164 e8bd a39b f03e d3a9 ec3e
00000140: 5139 043d 067a da3c c4bb ffbe 3233 123f
00000150: a65f b73e 9c70 8dbc 15e0 e0be cb68 563e
00000160: f502 f4be 844f e83a 32b7 213e 682f d43d
00000170: 644f 833e 7e9d 0a3f a9e3 903e b793 8dbd
00000180: 67b2 173f 1dd4 9abc d9af a7be 847c 04bf
00000190: 08bb 9abe 4bd8 ddbe 16b1 343e c143 963e
000001a0: 4784 433d 5639 27be 2d29 683e 0013 93be
000001b0: 544c f53d 060c debe 4905 593e 3b4a 8fbc
000001c0: 6364 27be fff5 c13e ff89 8fbd f204 b43d
000001d0: b7b3 ccbe 2dd6 acbe 8203 2ebf f202 9ebd
000001e0: 14a2 05bf 4a91 3dbf a602 643d 878c 41bd
000001f0: 17e7 283f 9313 573e 5026 953e b23e 893e
00000200: b40d 21bf f3ed db3d a36f 363f 997e ba3e
00000210: 1184 4bbf 4431 f8be c28b 883e 0d3b fc3e
00000220: 9f99 0c3d e7d3 e7be fbe2 903e c738 01bd
00000230: 8ab2 133f e911 03bc 461a ccbe ea57 29be
00000240: 48fc 8dbe 0edb 353d 0647 dfbe c644 f1bd
00000250: 3bcd 26be 414f 02bf b0e7 b03e 79ab 263f
00000260: 5a17 993c 64f0 6dbe 6499 96be cca3 493e
00000270: 266b bd3e 929d 733e 7d7f 303e 6013 71be
00000280: 1e34 b43e fd30 a83e 32e2 52bf af52 b43e
00000290: 8202 cdbe 9e54 c73e 9341 88bf c4be fd3e
000002a0: 8ecf 923d 2774 72bc f471 703e 8e57 06be
000002b0: e696 60be b745 64be 6532 fb3c 7327 0c3f
000002c0: b4cb 223f ed06 063f e40f bf3e f764 6cbe
000002d0: fed1 763e 23d4 1f3d 64b6 9dbc a9a2 863d
000002e0: d405 243f 1c16 4c3d b56c acbe b525 9fbd
000002f0: 2e81 49be 76f5 f93e 1423 4b3e bfbf c23d
00000300: 206f 4bbf a155 87be b1ec 1abf c07d 90be
00000310: a608 063c 66ff 0b3c 0b63 933e 943b c73e
00000320: 8d00 fe3e 5809 07be bc5c 15be 86b2 cfbe
00000330: 8f41 e4be bbd7 893e 6db5 113e 3be0 b03e
00000340: 1831 263d b186 1fbe 4f93 f6be 031e 613f
00000350: e55b 1c3f 3c1b 003f 9da4 9fbe b447 c6be
00000360: b241 adbe c250 763e 9c9f de3e 8e57 f4bc
00000370: ab4d 49bd 14a4 b73e 0c5e b63d a5b0 9bbe
00000380: 561b b53e b80e b1be 61b1 0abf 9f24 9dbd
00000390: 095a 8d3d 688c 31bf ce1a 2d3e 7d4e bb3e
000003a0: 766e c93e cfc9 cdbe 0d63 4a3c 4622 c73d
000003b0: f9b5 93bd e950 45be 434a 383d b1e9 9dbd
000003c0: 0b61 bc3d 522c 2c3e 61bf 853e 2a9b 0fbf
000003d0: adbd 29be a4d0 c9be 8426 a0bd 8bce 163e
000003e0: f4bc e5be e572 f6be d34a 00be 61e4 063f
000003f0: 392e fb3e c949 39be 47f1 b23d d344 b53e
0.113045216 -0.003075127 0.40576574 0.14595209 -0.5997542 0.22358696 0.10866603 0.37172118
0.32604113 -0.6451451 -0.11071361 -0.17566678 0.55560714 -0.28317386 -0.32347852 0.19507115
-0.0047870483 0.37461767 0.010555198 0.04960553 -0.083937004 -0.52147615 -0.034646474 0.15996619
0.19752286 -0.1472218 -0.5685594 0.12649293 0.20172295 0.17983285 -0.09082005 -0.20770156
0.49935102 -0.13202529 -0.4285452 -0.2607986 0.21985418 -0.11781679 -0.679065 0.12319404
-0.072240666 0.124851905 0.34344482 -0.2276977 0.34120816 -0.44658458 -0.10526233 0.40350798
0.52656615 0.4550223 0.54412127 -0.04440736 0.08888728 0.48892835 -0.28130147 -0.06694612
0.38737106 -0.47929862 -0.18739395 0.28671172 -0.5707492 0.28276637 0.010601544 0.63216966
-0.46049154 -0.18502383 -0.56384027 -0.31574783 0.090158045 0.09759713 -0.15606245 -0.0064921984
0.6046581 0.1293721 -0.58498937 -0.4912127 -0.60797167 -0.11347283 0.4699374 0.46223316
0.032281224 0.026669513 -0.4994794 0.5710937 0.3581516 -0.01726561 -0.4392096 0.20938413
-0.47658506 0.0017723893 0.1579254 0.103606045 0.25646508 0.54146564 0.2829869 -0.0691294
0.59256595 -0.018899972 -0.3275135 -0.51752496 -0.3022082 -0.4332908 0.17645678 0.29348567
0.04773357 -0.16330466 0.22671957 -0.28725433 0.11977449 -0.43368548 0.21193422 -0.01749145
-0.16346888 0.37882993 -0.070087425 0.08790006 -0.39980862 -0.33757153 -0.679741 -0.077154055
-0.52200437 -0.7404982 0.05566659 -0.047253158 0.65977615 0.2100356 0.29130793 0.26805645
-0.62911534 0.107387446 0.71264094 0.3642471 -0.7949839 -0.48475087 0.26669127 0.49263802
0.034326192 -0.45278856 0.28298172 -0.031548288 0.57694304 -0.007999876 -0.39863795 -0.16537443
-0.27731538 0.04439836 -0.43608874 -0.117806956 -0.16289227 -0.5090218 0.34551764 0.65105397
0.018687893 -0.23236233 -0.29413903 0.1969139 0.3699581 0.23790577 0.17236133 -0.23542547
0.35196012 0.32849875 -0.82376397 0.35219333 -0.40040976 0.38931745 -1.0645012 0.49559605
0.07168494 -0.014798201 0.2348097 -0.13119337 -0.21932563 -0.22292219 0.030663678 0.54747695
0.63592076 0.5235432 0.3731681 -0.2308539 0.24103543 0.03902067 -0.01925201 0.06573994
0.64071393 0.049825773 -0.33676687 -0.07770864 -0.19678184 0.48820084 0.198376 0.09509229
-0.7946644 -0.26432517 -0.6051741 -0.2822094 0.008180773 0.008544778 0.287865 0.38912642
0.49609795 -0.13187158 -0.14586157 -0.4056589 -0.44581267 0.26922402 0.14229365 0.34546074
0.040574163 -0.15578724 -0.48159263 0.8793642 0.6107772 0.50041556 -0.31180277 -0.3872658
-0.33839184 0.24054244 0.43481147 -0.029826906 -0.049146336 0.3586737 0.08904657 -0.30408207
0.35372418 -0.34581542 -0.5417691 -0.076730005 0.069019385 -0.6935487 0.16904756 0.3658332
0.39342088 -0.4019303 0.012352717 0.09723334 -0.07212443 -0.19269146 0.044992696 -0.07710589
0.09198197 0.16813782 0.26122573 -0.56096137 -0.16576262 -0.39416993 -0.07819846 0.14727227
-0.44870722 -0.48134533 -0.12528543 0.5269223 0.49058703 -0.18094553 0.08737426 0.3540407

fc.bias f4 [62]
00000000: e9bd 6a3e 1fc7 5dbd c25d 9abe 7b9e 9cbe
00000010: 60c4 5c3d 5145 c1bd 4f5a 06be 8429 55be
00000020: 35cf 7cbd c57b 4dbe 1cb4 61be bbf0 3a3e
00000030: 8bed 8abd 1e46 c73d 9270 68ba 3c5d a13d
00000040: a7d1 8f3d a378 36be 8b82 463d a14a 43bd
00000050: 4a62 12be 3aa7 7dbd 1b23 dcbb 390c 863d
00000060: 48d1 32be e892 29be 1057 b5bd bffb 5abd
00000070: eb3c 5e3d 1cbd 023d 40cd 22bd 31e1 a5bd
00000080: b3b8 16be 1820 74bd f146 c9bd 2ab9 3abe
00000090: 8590 753d 6599 dcbd 0c01 713b cbec 4d3d
000000a0: 76c7 18bd 37ab 243c e2c8 92bd b4c4 03be
000000b0: 1479 1e3e 7416 acbe 91ec 29be 44fa 1a3e
000000c0: 1fc5 a5bc 5fa2 a8bc 9837 2e3d b7fa c93d
000000d0: 4c43 4ebe ca49 3f3d ea87 e63d 8638 313d
000000e0: abbc 9d3c d0ad 8cbd c08a dd3d ff7e c9be
000000f0: 67e7 8dbc 9a5d 45be
0.22924007 -0.054144975 -0.30149657 -0.3058966 0.053898215 -0.09437049 -0.13120387 -0.20816618
-0.061721046 -0.20066746 -0.22041363 0.18255894 -0.06783589 0.09730171 -0.0008866872 0.07879111
0.0702241 -0.17819457 0.04846434 -0.047678594 -0.14295307 -0.061927058 -0.006718052 0.065453
-0.17462647 -0.16559947 -0.088544965 -0.05346274 0.054257315 0.03191863 -0.039746523 -0.080995925
-0.14718895 -0.05960092 -0.09827984 -0.18234697 0.059952278 -0.10771445 0.0036774306 0.05027465
-0.037299596 0.010050586 -0.071672216 -0.12868005 0.15475875 -0.3361088 -0.16594149 0.15134531
-0.020235596 -0.020585237 0.042533487 0.09862273 -0.20142859 0.04670123 0.11256392 0.043266796
0.019255003 -0.068690896 0.1081748 -0.39354703 -0.017322255 -0.19273987
